model/keypoint_classifier/keypoint_classifier.tflite (tflite, 8600 bytes, 6 tensors)

sequential/dense_2/MatMul f4 [26, 30]
0	0xbea55e9f	-0.32298753
1	0xbe4157eb	-0.18881194
2	0xbe1175cb	-0.1420509
3	0xbdbc59b3	-0.09196796
4	0x3e2868df	0.16446255
5	0xbdd2f6ea	-0.10301001
6	0x3dd9394e	0.10606633
7	0xbd53739c	-0.051623926
8	0x3e7c99af	0.24668
9	0x3e98f8a0	0.29877186
10	0xbdb7950c	-0.08963975
11	0x3e787486	0.242632
12	0x3eb573c0	0.35439873
13	0x3ef9039f	0.48635575
14	0x3edc3b76	0.43014115
15	0x3cfea717	0.031085534
16	0xbf43d276	-0.7649301
17	0x3eaa8146	0.33301753
18	0xbf4d1073	-0.80103225
19	0xbf1b6a3f	-0.60708994
20	0x3ed2be0c	0.4116062
21	0xbe4ca5ba	-0.19985095
22	0xbead070c	-0.3379444
23	0xbd508ace	-0.050913624
24	0x3def7254	0.11691728
25	0xbf1f5deb	-0.6225268
26	0x3e8f2450	0.27957392
27	0x3e6477b0	0.22311282
28	0xbeba3568	-0.3636887
29	0x3deb43ad	0.114875175
30	0x3f0f1a78	0.55899763
31	0x3cca2107	0.024673952
32	0xbf05a316	-0.52201974
33	0xbefbfc76	-0.4921605
34	0xbe66f80c	-0.2255556
35	0xbd6cd9ba	-0.057824828
36	0x3e286917	0.16446339
37	0x3e004dbe	0.12529656
38	0x3e5c41a8	0.21509421
39	0xbe8159e9	-0.25263909
40	0x3e47de26	0.19518337
41	0x3e81e2e5	0.2536842
42	0xbf5f6c45	-0.8727458
43	0x3d9e36f3	0.077253245
44	0xbe8f5573	-0.2799488
45	0x3e2b6a22	0.16739705
46	0xbeaf15db	-0.34196362
47	0xbbe3b8e7	-0.0069495323
48	0x3d1715f4	0.03688617
49	0xbe47b1c5	-0.19501407
50	0xbf1e8b83	-0.6193163
51	0x3f09e04f	0.5385789
52	0x3cb439a4	0.022000141
53	0xbe8f39fd	-0.2797393
54	0x3cd18546	0.025576245
55	0x3dfee697	0.12446325
56	0x3db7c2ed	0.08972726
57	0x3e90b35c	0.2826184
58	0xbd8d23c2	-0.06891586
59	0x3db2af46	0.08724837
60	0x3e9d7b71	0.3075824
61	0x3e04f8f4	0.12985593
62	0xbe22d52e	-0.15901634
63	0xbf1a070d	-0.6016701
64	0xbea3b8c0	-0.3197689
65	0xbe1571f8	-0.14594257
66	0x3ecd3876	0.4008214
67	0x3e0aba13	0.13547544
68	0x3ee5909d	0.44836894
69	0x3e84d1eb	0.25941405
70	0xbe6ba09c	-0.23010486
71	0x3e92ffb9	0.28710726
72	0xbec50e60	-0.3848753
73	0xbda94797	-0.08265608
74	0xbe49ad4c	-0.19695014
75	0x3f23ea8c	0.64029765
76	0xbf24404f	-0.6416063
77	0xbeaa3966	-0.33246917
78	0x3e9c0bd9	0.3047779
79	0x3e4be55a	0.1991171
80	0xbf0dd7dd	-0.55407506
81	0x3e74e1ed	0.23914309
82	0x3e29fde3	0.16600756
83	0x3c0a04a4	0.008423958
84	0xbf037303	-0.5134737
85	0xbe323909	-0.1740457
86	0xbee29f26	-0.44262046
87	0x3e6af882	0.2294636
88	0xbd030fa0	-0.031997323
89	0x3e1f27bf	0.15542506
90	0x3eaef549	0.34171513
91	0xbe829c7d	-0.25510016
92	0x3e956a0e	0.29182476
93	0xbd5ff9f0	-0.05468172
94	0xbf7dfe11	-0.992158
95	0xbf3bc765	-0.73351127
96	0x3e5fc038	0.2185067
97	0xbe5c74bb	-0.21528904
98	0xbe145f73	-0.14489536
99	0xbe0fc536	-0.14040074
100	0xbe243bdd	-0.16038461
101	0xbf07c086	-0.5302814
102	0xbddf2b58	-0.10896939
103	0x3d924a66	0.071430966
104	0xbe9c624a	-0.3054374
105	0xbe106886	-0.14102373
106	0xbe3c042c	-0.18360966
107	0xbe10d3bc	-0.1414327
108	0x3e535807	0.20639049
109	0xbf16c148	-0.58888674
110	0xbdeffa0f	-0.11717617
111	0x3e9f9801	0.31170657
112	0x3f120331	0.5703612
113	0x3ead60d9	0.3386295
114	0xbea04388	-0.31301522
115	0x3e5d549c	0.21614307
116	0xbf18da0f	-0.5970773
117	0x3dff5cfc	0.12468907
118	0x3e20b359	0.15693416
119	0x3ec92803	0.3928834
120	0x3e19891c	0.1499371
121	0xbe980955	-0.2969462
122	0x3dc7271e	0.09724258
123	0xbc84290e	-0.016132858
124	0x3f12b378	0.573051
125	0x3d93ba8c	0.07213315
126	0xbbf3966e	-0.007433704
127	0xbc33c775	-0.010972847
128	0x3e8b00ec	0.2714914
129	0xbd4f9893	-0.050682615
130	0x3e7d4d65	0.24736555
131	0x3ea497bc	0.32147014
132	0xbea2ebfe	-0.31820673
133	0xbee329c2	-0.44367796
134	0x3ef69f6a	0.48168498
135	0xbf09d316	-0.53837717
136	0xbe4d33e4	-0.20039326
137	0x3e7dd3af	0.24787782
138	0x3db26f23	0.08712604
139	0xbe7f9d57	-0.24962364
140	0x3ec80126	0.39063376
141	0x3d024c4b	0.03181104
142	0x3ef80b5f	0.48446175
143	0xbf299434	-0.66241765
144	0xbe392a54	-0.18082553
145	0xbf7daee5	-0.9909499
146	0xbe4b2380	-0.19837761
147	0xbcad7608	-0.021174446
148	0x3d10cfac	0.0353543
149	0xbba49399	-0.005022478
150	0x3ecbf0f0	0.39832258
151	0xbe0737ac	-0.13204831
152	0xbf4abcb0	-0.79194164
153	0xbf9533de	-1.1656454
154	0xbe4a8147	-0.19775878
155	0x3df54ba2	0.119773164
156	0x3d945c8b	0.07244214
157	0x3d972d28	0.0738166
158	0x3e9a47f6	0.30133027
159	0xbdb89690	-0.090130925
160	0xbdb8ee10	-0.09029782
161	0x3f101dca	0.56295455
162	0xbf269ed7	-0.6508612
163	0xbe8107aa	-0.2520116
164	0xbe84da74	-0.25947917
165	0xbe3321d3	-0.17493372
166	0xbdebc333	-0.11511841
167	0xbc47b1fa	-0.012188429
168	0xbdc7df00	-0.09759331
169	0xbf425240	-0.75906754
170	0x3ecc9ea6	0.3996479
171	0x3f339cc0	0.70161057
172	0x3d7a25d2	0.061071225
173	0xbeb4fa89	-0.35347393
174	0xbd9fe43c	-0.07807204
175	0xbe4273dc	-0.1898951
176	0x3c9146ab	0.017733892
177	0x3e7717ac	0.24130124
178	0xbe6b4cc4	-0.22978503
179	0xbe9871fe	-0.2977447
180	0xbe53ca41	-0.20682622
181	0xbe69461d	-0.22780652
182	0x3e84c4a7	0.25931284
183	0xbf002dca	-0.5006987
184	0xbec990ef	-0.39368388
185	0x3ec89b97	0.39181206
186	0x3ec3d059	0.38244894
187	0x3e9c1ac7	0.3048918
188	0xbe697a30	-0.22800517
189	0x3eaae2f4	0.33376276
190	0xbd78975a	-0.060691215
191	0xbf71b7c1	-0.9442101
192	0x3ea81fdd	0.3283681
193	0x3c580ed3	0.013187128
194	0x3e2235bc	0.1584081
195	0x3f1d25e9	0.6138597
196	0x3ec379bd	0.38178816
197	0xbe7955e0	-0.24349165
198	0xbdf38948	-0.11891419
199	0xbe95d814	-0.29266417
200	0xbf39f58e	-0.7264031
201	0xbf133a4e	-0.5751084
202	0xbe7e5c53	-0.24839906
203	0x3d6a1d84	0.057157055
204	0x3e978f11	0.29601339
205	0xbd490187	-0.049073722
206	0x3e9738eb	0.29535612
207	0xbeda1fc1	-0.4260235
208	0xbc920c8e	-0.017828252
209	0x3f1e9b8c	0.61956096
210	0xbe9629af	-0.29328677
211	0xbeeb4bb3	-0.4595619
212	0xbeb5d3a6	-0.35513037
213	0xbdbf865a	-0.093517974
214	0xbe896767	-0.26836702
215	0x3f1fc5fa	0.62411463
216	0x3d14e29c	0.036348924
217	0x3dbe1163	0.0928066
218	0xbf04628a	-0.5171286
219	0xbf1a89fe	-0.6036681
220	0x3e979a9f	0.29610154
221	0x3eb084a5	0.344762
222	0x3e00c425	0.12574823
223	0xbf339db4	-0.7016251
224	0xbf48c6ce	-0.7842835
225	0xbea9b87b	-0.3314856
226	0x3f18131f	0.59404176
227	0x3e1b3c97	0.15159832
228	0x3cc3078f	0.023807315
229	0xbec0fc6d	-0.37692586
230	0xbe1f45a7	-0.15553914
231	0x3e10dcc8	0.14146721
232	0xbe2ee025	-0.17077692
233	0x3e8941bf	0.26807973
234	0xbf45a43e	-0.7720374
235	0x3e3bfa6e	0.1835725
236	0x3e1567c1	0.1459036
237	0xbe240fb7	-0.1602162
238	0x3ea85cff	0.3288345
239	0xbc57a165	-0.013161038
240	0xbe6dd9f6	-0.23227677
241	0x3e504365	0.20338209
242	0xbc505132	-0.012714671
243	0xbea9f5ee	-0.33195442
244	0x3eace941	0.3377171
245	0x3e2982f2	0.16553858
246	0xbe50336e	-0.20332119
247	0x3f22f3e2	0.63653386
248	0xbdab9b22	-0.083791986
249	0xbf63ba67	-0.889563
250	0xbee24f28	-0.44201016
251	0xbf1ea6d4	-0.6197331
252	0x3ea18e87	0.31554052
253	0xbd9000f2	-0.0703143
254	0xbe8ffb3d	-0.28121367
255	0xbf05235d	-0.52007085

sequential/dense/BiasAdd/ReadVariableOp f4 [40]
0	0xbc10ebc0	-0.00884527
1	0xbf1f44aa	-0.6221415
2	0xbee266ba	-0.44219
3	0xbe4b9e38	-0.19884574
4	0x3e2e45dd	0.17018838
5	0xbf034f57	-0.5129294
6	0xbf239877	-0.6390452
7	0x3cd9f9e1	0.02660841
8	0xbf147205	-0.5798648
9	0xbf752c4d	-0.9577072
10	0x3e9782df	0.29592034
11	0xbf4fb0e2	-0.81129277
12	0xbfb40070	-1.4062634
13	0x3e3e435b	0.18580382
14	0xbf0b609f	-0.5444431
15	0xbda4c1dc	-0.08044788
16	0xbf0c0964	-0.5470183
17	0xbe4e5144	-0.20148188
18	0xbdcdf3fd	-0.10056303
19	0x3e38b0b6	0.1803616
20	0xbec44516	-0.38333958
21	0xbe5db9c2	-0.21652892
22	0xbf19817b	-0.59963197
23	0xbf018985	-0.50600463
24	0xbf916978	-1.1360312
25	0xbeef3026	-0.46716422
26	0xbf7ab988	-0.9793935
27	0xbf0ee3a0	-0.5581608
28	0x3e4aee27	0.1981741
29	0xbf276b3f	-0.6539802
30	0xbef5a994	-0.4798094
31	0xbe014d98	-0.12627256
32	0xbf055c6b	-0.52094144
33	0xbf9d60f8	-1.2295218
34	0xbf31904c	-0.69360805
35	0xbefe431d	-0.49660578
36	0xbebdf651	-0.37101987
37	0xbf249a50	-0.6429796
38	0xbdcfbe7b	-0.10143753
39	0xbee8fbbc	-0.45504558

sequential/dense_2/BiasAdd/ReadVariableOp f4 [26]
0	0xbe69ada2	-0.22820142
1	0xbf00a065	-0.5024474
2	0xbf8b9bab	-1.0906881
3	0x3e8a9287	0.27064916
4	0xbdf96bde	-0.12178777
5	0x3eac79cd	0.33686677
6	0x3de82fe6	0.11337261
7	0x3e17590a	0.1478006
8	0x3f15efd6	0.58569086
9	0xbe843ba0	-0.2582674
10	0x3e292408	0.16517651
11	0x3de612e4	0.11234072
12	0xbe9ec693	-0.31010875
13	0x3e6c125d	0.2305388
14	0xbfa6eb99	-1.3040649
15	0x3f80f362	1.0074275
16	0xbe830bb8	-0.25594878
17	0x3d9c3900	0.076280594
18	0xbe1171f6	-0.14203629
19	0xbe6ce52e	-0.231343
20	0x3ee4ecb0	0.44711828
21	0x3e8c90a7	0.2745411
22	0x3e6870ef	0.22699331
23	0x3e7156e2	0.235683
24	0x3dabfcd9	0.08397836
25	0x3f0568e4	0.52113175

sequential/dense_1/BiasAdd/ReadVariableOp f4 [30]
0	0xbd9d02cd	-0.0766655
1	0xbf179a96	-0.59220254
2	0x3ef86805	0.4851686
3	0x3f529c08	0.82269335
4	0x3ed5ba6d	0.41743794
5	0x3edb2300	0.4280014
6	0xbe10a669	-0.1412598
7	0x3eb9789b	0.36224827
8	0xbf3328ac	-0.69983935
9	0xbd9c3453	-0.076271676
10	0x3f0d6122	0.5522634
11	0xbe13d53e	-0.14436814
12	0x3fa5f6c4	1.2965932
13	0x3dbc9dff	0.09209823
14	0x3ea18335	0.31545416
15	0xbf19fdfe	-0.60153186
16	0x3fa4c95a	1.2873948
17	0x3e013c7f	0.12620734
18	0x3f17fba5	0.59368354
19	0x3e882c52	0.26596314
20	0x3f6312f0	0.8870077
21	0x3e8308fd	0.25592795
22	0x3f23a7ca	0.639279
23	0xbd545515	-0.051838953
24	0x3f5448e7	0.8292374
25	0x3f396ec7	0.7243466
26	0x3f546c7b	0.8297803
27	0xbed2c85f	-0.41168496
28	0x3f440be5	0.7658065
29	0x3f06999d	0.52578145

sequential/dense/MatMul i1 [40, 42] scale=0.016111549 zero_point=0
0	0x10	0.25778478
1	0xf1	-0.24167323
2	0xf0	-0.25778478
3	0x0e	0.22556168
4	0xf2	-0.22556168
5	0x28	0.644462
6	0xf7	-0.14500394
7	0x33	0.821689
8	0xf3	-0.20945014
9	0x3f	1.0150276
10	0xf5	-0.17722704
11	0x02	0.032223098
12	0x00	0.0
13	0x00	0.0
14	0x00	0.0
15	0x0b	0.17722704
16	0xfc	-0.064446196
17	0x1d	0.4672349
18	0xfa	-0.096669294
19	0xfb	-0.08055775
20	0x03	0.048334647
21	0x12	0.2900079
22	0x0a	0.1611155
23	0x21	0.5316811
24	0x03	0.048334647
25	0x47	1.14392
26	0xf7	-0.14500394
27	0xf2	-0.22556168
28	0x0b	0.17722704
29	0x0e	0.22556168
30	0x08	0.12889239
31	0x05	0.08055775
32	0x02	0.032223098
33	0xec	-0.322231
34	0x0c	0.19333859
35	0x06	0.096669294
36	0x0c	0.19333859
37	0x00	0.0
38	0x12	0.2900079
39	0xfe	-0.032223098
40	0x16	0.35445407
41	0xfe	-0.032223098
42	0xf4	-0.19333859
43	0x0e	0.22556168
44	0x00	0.0
45	0x48	1.1600316
46	0xff	-0.016111549
47	0x18	0.38667718
48	0x01	0.016111549
49	0x0b	0.17722704
50	0x03	0.048334647
51	0x87	-1.9494975
52	0x00	0.0
53	0x01	0.016111549
54	0x00	0.0
55	0x01	0.016111549
56	0x01	0.016111549
57	0x00	0.0
58	0x00	0.0
59	0xfe	-0.032223098
60	0x01	0.016111549
61	0x00	0.0
62	0x00	0.0
63	0x00	0.0
64	0x02	0.032223098
65	0x00	0.0
66	0x02	0.032223098
67	0xfe	-0.032223098
68	0xfc	-0.064446196
69	0xff	-0.016111549
70	0x01	0.016111549
71	0x02	0.032223098
72	0x00	0.0
73	0x04	0.064446196
74	0xfc	-0.064446196
75	0x03	0.048334647
76	0x04	0.064446196
77	0xfe	-0.032223098
78	0x01	0.016111549
79	0x05	0.08055775
80	0x01	0.016111549
81	0x07	0.11278084
82	0xfd	-0.048334647
83	0x06	0.096669294
84	0x0b	0.17722704
85	0x03	0.048334647
86	0xfb	-0.08055775
87	0x08	0.12889239
88	0xfa	-0.096669294
89	0x04	0.064446196
90	0x00	0.0
91	0x02	0.032223098
92	0x02	0.032223098
93	0x00	0.0
94	0xfe	-0.032223098
95	0x04	0.064446196
96	0xfe	-0.032223098
97	0x04	0.064446196
98	0xff	-0.016111549
99	0x05	0.08055775
100	0x00	0.0
101	0x06	0.096669294
102	0xfe	-0.032223098
103	0x05	0.08055775
104	0xfb	-0.08055775
105	0x04	0.064446196
106	0x08	0.12889239
107	0x9a	-1.643378
108	0x1c	0.45112336
109	0x09	0.14500394
110	0xfe	-0.032223098
111	0x05	0.08055775
112	0xfb	-0.08055775
113	0x04	0.064446196
114	0xfe	-0.032223098
115	0x09	0.14500394
116	0x0a	0.1611155
117	0x0a	0.1611155
118	0x02	0.032223098
119	0x04	0.064446196
120	0xfe	-0.032223098
121	0x02	0.032223098
122	0xfc	-0.064446196
123	0x03	0.048334647
124	0x03	0.048334647
125	0x04	0.064446196
126	0x08	0.12889239
127	0x0e	0.22556168
128	0x00	0.0
129	0x19	0.40278873
130	0x00	0.0
131	0x0b	0.17722704
132	0x01	0.016111549
133	0x04	0.064446196
134	0x03	0.048334647
135	0x02	0.032223098
136	0x01	0.016111549
137	0x0a	0.1611155
138	0x01	0.016111549
139	0x07	0.11278084
140	0xfe	-0.032223098
141	0x06	0.096669294
142	0xfe	-0.032223098
143	0x06	0.096669294
144	0x01	0.016111549
145	0x0b	0.17722704
146	0xfe	-0.032223098
147	0x07	0.11278084
148	0xff	-0.016111549
149	0x07	0.11278084
150	0xf4	-0.19333859
151	0x92	-1.7722704
152	0x03	0.048334647
153	0x0a	0.1611155
154	0xff	-0.016111549
155	0x06	0.096669294
156	0x04	0.064446196
157	0x06	0.096669294
158	0x10	0.25778478
159	0x08	0.12889239
160	0x00	0.0
161	0x0c	0.19333859
162	0xfe	-0.032223098
163	0x06	0.096669294
164	0x00	0.0
165	0x04	0.064446196
166	0x01	0.016111549
167	0x04	0.064446196
168	0x05	0.08055775
169	0xfb	-0.08055775
170	0xfe	-0.032223098
171	0x16	0.35445407
172	0xff	-0.016111549
173	0x17	0.37056562
174	0x01	0.016111549
175	0x14	0.322231
176	0x01	0.016111549
177	0x10	0.25778478
178	0x01	0.016111549
179	0x07	0.11278084
180	0x01	0.016111549
181	0x08	0.12889239
182	0x01	0.016111549
183	0x08	0.12889239
184	0x03	0.048334647
185	0x92	-1.7722704
186	0x02	0.032223098
187	0x08	0.12889239
188	0x02	0.032223098
189	0x09	0.14500394
190	0x01	0.016111549
191	0x09	0.14500394
192	0x03	0.048334647
193	0x09	0.14500394
194	0x00	0.0
195	0x08	0.12889239
196	0x01	0.016111549
197	0x09	0.14500394
198	0xfd	-0.048334647
199	0x07	0.11278084
200	0xfd	-0.048334647
201	0x06	0.096669294
202	0x01	0.016111549
203	0x09	0.14500394
204	0x01	0.016111549
205	0x09	0.14500394
206	0xff	-0.016111549
207	0x07	0.11278084
208	0xfe	-0.032223098
209	0x04	0.064446196
210	0x0b	0.17722704
211	0x0f	0.24167323
212	0x05	0.08055775
213	0xff	-0.016111549
214	0x02	0.032223098
215	0x08	0.12889239
216	0x04	0.064446196
217	0x09	0.14500394
218	0xff	-0.016111549
219	0x07	0.11278084
220	0xff	-0.016111549
221	0x04	0.064446196
222	0x00	0.0
223	0x03	0.048334647
224	0x00	0.0
225	0x00	0.0
226	0x00	0.0
227	0xfc	-0.064446196
228	0xfe	-0.032223098
229	0x05	0.08055775
230	0xff	-0.016111549
231	0x03	0.048334647
232	0xfe	-0.032223098
233	0x00	0.0
234	0xff	-0.016111549
235	0x02	0.032223098
236	0xff	-0.016111549
237	0x05	0.08055775
238	0xff	-0.016111549
239	0x04	0.064446196
240	0x01	0.016111549
241	0x08	0.12889239
242	0xff	-0.016111549
243	0x09	0.14500394
244	0x02	0.032223098
245	0x05	0.08055775
246	0xfc	-0.064446196
247	0x05	0.08055775
248	0x01	0.016111549
249	0x0e	0.22556168
250	0xfe	-0.032223098
251	0x81	-2.0461667
252	0x06	0.096669294
253	0x06	0.096669294
254	0xd9	-0.62835044
255	0xa7	-1.4339279

sequential/dense_1/MatMul i1 [30, 40] scale=0.023010766 zero_point=0
0	0x07	0.16107537
1	0xe1	-0.7133337
2	0x00	0.0
3	0x0c	0.2761292
4	0x05	0.11505383
5	0x18	0.5522584
6	0xfb	-0.11505383
7	0xf4	-0.2761292
8	0x08	0.18408613
9	0x4a	1.7027967
10	0x2c	1.0124737
11	0x22	0.78236604
12	0x05	0.11505383
13	0x07	0.16107537
14	0x01	0.023010766
15	0x01	0.023010766
16	0x0e	0.32215074
17	0x04	0.092043065
18	0x0b	0.25311843
19	0x0d	0.29913995
20	0x01	0.023010766
21	0x0a	0.23010767
22	0x06	0.1380646
23	0x13	0.43720457
24	0xfc	-0.092043065
25	0x0a	0.23010767
26	0x04	0.092043065
27	0xf9	-0.16107537
28	0x02	0.046021532
29	0x0b	0.25311843
30	0x16	0.50623685
31	0x00	0.0
32	0x00	0.0
33	0x14	0.46021533
34	0x10	0.36817226
35	0x28	0.92043066
36	0x05	0.11505383
37	0x02	0.046021532
38	0x02	0.046021532
39	0x0f	0.3451615
40	0x06	0.1380646
41	0x01	0.023010766
42	0x07	0.16107537
43	0x0f	0.3451615
44	0x0b	0.25311843
45	0x24	0.82838756
46	0x08	0.18408613
47	0x03	0.0690323
48	0xf1	-0.3451615
49	0x01	0.023010766
50	0x01	0.023010766
51	0x27	0.89741987
52	0x0e	0.32215074
53	0x11	0.39118302
54	0xe2	-0.690323
55	0x0c	0.2761292
56	0x06	0.1380646
57	0x07	0.16107537
58	0x0a	0.23010767
59	0x0e	0.32215074
60	0x03	0.0690323
61	0x1a	0.5982799
62	0x08	0.18408613
63	0xf5	-0.25311843
64	0xed	-0.43720457
65	0xe5	-0.6212907
66	0xfa	-0.1380646
67	0x0a	0.23010767
68	0x09	0.20709689
69	0xf3	-0.29913995
70	0xfd	-0.0690323
71	0x0e	0.32215074
72	0x2b	0.989463
73	0x01	0.023010766
74	0xca	-1.2425814
75	0x07	0.16107537
76	0x12	0.41419378
77	0x17	0.52924764
78	0xfb	-0.11505383
79	0x03	0.0690323
80	0xfa	-0.1380646
81	0x3a	1.3346244
82	0x0a	0.23010767
83	0xf9	-0.16107537
84	0x01	0.023010766
85	0xfe	-0.046021532
86	0x07	0.16107537
87	0x04	0.092043065
88	0x1d	0.6673122
89	0x0a	0.23010767
90	0xe7	-0.57526916
91	0x08	0.18408613
92	0x03	0.0690323
93	0x00	0.0
94	0x09	0.20709689
95	0xf5	-0.25311843
96	0xfe	-0.046021532
97	0xe2	-0.690323
98	0x07	0.16107537
99	0x0f	0.3451615
100	0xf3	-0.29913995
101	0x16	0.50623685
102	0x02	0.046021532
103	0x0c	0.2761292
104	0x13	0.43720457
105	0x1d	0.6673122
106	0xfb	-0.11505383
107	0x2d	1.0354844
108	0x0d	0.29913995
109	0x02	0.046021532
110	0x0c	0.2761292
111	0xf3	-0.29913995
112	0xfa	-0.1380646
113	0x26	0.87440914
114	0x02	0.046021532
115	0xf3	-0.29913995
116	0xfa	-0.1380646
117	0xe7	-0.57526916
118	0x07	0.16107537
119	0xfc	-0.092043065
120	0x02	0.046021532
121	0xd2	-1.0584953
122	0xf3	-0.29913995
123	0xf1	-0.3451615
124	0x1e	0.690323
125	0xf4	-0.2761292
126	0x08	0.18408613
127	0xf9	-0.16107537
128	0xf6	-0.23010767
129	0xfd	-0.0690323
130	0xf3	-0.29913995
131	0x0d	0.29913995
132	0x06	0.1380646
133	0x26	0.87440914
134	0x00	0.0
135	0x02	0.046021532
136	0x03	0.0690323
137	0x04	0.092043065
138	0x06	0.1380646
139	0x04	0.092043065
140	0x0d	0.29913995
141	0x15	0.4832261
142	0x05	0.11505383
143	0x03	0.0690323
144	0xf6	-0.23010767
145	0xf1	-0.3451615
146	0xff	-0.023010766
147	0xf1	-0.3451615
148	0xf9	-0.16107537
149	0x00	0.0
150	0xf1	-0.3451615
151	0x01	0.023010766
152	0x01	0.023010766
153	0xfb	-0.11505383
154	0x06	0.1380646
155	0x0f	0.3451615
156	0x07	0.16107537
157	0x0c	0.2761292
158	0x22	0.78236604
159	0xec	-0.46021533
160	0x10	0.36817226
161	0x12	0.41419378
162	0xf4	-0.2761292
163	0x03	0.0690323
164	0xf3	-0.29913995
165	0x19	0.57526916
166	0xed	-0.43720457
167	0xfb	-0.11505383
168	0xd2	-1.0584953
169	0xf7	-0.20709689
170	0x04	0.092043065
171	0x07	0.16107537
172	0x04	0.092043065
173	0xf1	-0.3451615
174	0x00	0.0
175	0x17	0.52924764
176	0x14	0.46021533
177	0x0b	0.25311843
178	0x0b	0.25311843
179	0x0c	0.2761292
180	0x12	0.41419378
181	0x13	0.43720457
182	0x04	0.092043065
183	0x16	0.50623685
184	0x1e	0.690323
185	0x06	0.1380646
186	0x00	0.0
187	0x03	0.0690323
188	0x04	0.092043065
189	0x1a	0.5982799
190	0xe6	-0.5982799
191	0x17	0.52924764
192	0x15	0.4832261
193	0x0f	0.3451615
194	0x19	0.57526916
195	0x09	0.20709689
196	0xe7	-0.57526916
197	0x28	0.92043066
198	0x02	0.046021532
199	0x05	0.11505383
200	0x06	0.1380646
201	0xe3	-0.6673122
202	0xef	-0.39118302
203	0xed	-0.43720457
204	0xf4	-0.2761292
205	0x04	0.092043065
206	0xf8	-0.18408613
207	0x00	0.0
208	0x08	0.18408613
209	0x36	1.2425814
210	0x11	0.39118302
211	0x06	0.1380646
212	0xf9	-0.16107537
213	0xf1	-0.3451615
214	0x04	0.092043065
215	0x0c	0.2761292
216	0x0c	0.2761292
217	0xfd	-0.0690323
218	0x0e	0.32215074
219	0x08	0.18408613
220	0x16	0.50623685
221	0x03	0.0690323
222	0xef	-0.39118302
223	0x02	0.046021532
224	0x05	0.11505383
225	0xea	-0.50623685
226	0x0e	0.32215074
227	0xff	-0.023010766
228	0xff	-0.023010766
229	0x0b	0.25311843
230	0xf0	-0.36817226
231	0x0e	0.32215074
232	0x00	0.0
233	0xfa	-0.1380646
234	0x03	0.0690323
235	0xe3	-0.6673122
236	0x05	0.11505383
237	0x01	0.023010766
238	0xee	-0.41419378
239	0xf1	-0.3451615
240	0x02	0.046021532
241	0x0a	0.23010767
242	0x1a	0.5982799
243	0xfd	-0.0690323
244	0x02	0.046021532
245	0xfd	-0.0690323
246	0x0f	0.3451615
247	0xca	-1.2425814
248	0x19	0.57526916
249	0x19	0.57526916
250	0xfe	-0.046021532
251	0x11	0.39118302
252	0x01	0.023010766
253	0xfc	-0.092043065
254	0xfb	-0.11505383
255	0x0a	0.23010767
